…
epochs 50
batch_size 128
threshold 0.5
程序运行时间: 2022-03-05-16_34_59
Tensor("conv1d_1/Relu:0", shape=(?, 50, 300), dtype=float32)
Tensor("conv1d_2/Relu:0", shape=(?, 50, 300), dtype=float32)
(?, 100, 300)
dl2= Tensor("dropout_1/cond/Merge:0", shape=(?, 300), dtype=float32)
__________________________________________________________________________________________________
Layer (type)                    Output Shape         Param #     Connected to                     
==================================================================================================
input_2 (InputLayer)            (None, 100, 300)     0                                            
__________________________________________________________________________________________________
conv1d_2 (Conv1D)               (None, 50, 300)      180300      input_2[0][0]                    
__________________________________________________________________________________________________
input_1 (InputLayer)            (None, 100, 300)     0                                            
__________________________________________________________________________________________________
activation_2 (Activation)       (None, 50, 300)      0           conv1d_2[0][0]                   
__________________________________________________________________________________________________
conv1d_1 (Conv1D)               (None, 50, 300)      180300      input_1[0][0]                    
__________________________________________________________________________________________________
conv1d_3 (Conv1D)               (None, 50, 100)      60100       activation_2[0][0]               
__________________________________________________________________________________________________
activation_1 (Activation)       (None, 50, 300)      0           conv1d_1[0][0]                   
__________________________________________________________________________________________________
activation_3 (Activation)       (None, 50, 100)      0           conv1d_3[0][0]                   
__________________________________________________________________________________________________
dense_1 (Dense)                 (None, 50, 300)      90300       activation_1[0][0]               
__________________________________________________________________________________________________
dense_2 (Dense)                 (None, 50, 300)      30300       activation_3[0][0]               
__________________________________________________________________________________________________
concatenate_1 (Concatenate)     (None, 100, 300)     0           dense_1[0][0]                    
                                                                 dense_2[0][0]                    
__________________________________________________________________________________________________
bidirectional_1 (Bidirectional) (None, 300)          541200      concatenate_1[0][0]              
__________________________________________________________________________________________________
dropout_1 (Dropout)             (None, 300)          0           bidirectional_1[0][0]            
__________________________________________________________________________________________________
dense_3 (Dense)                 (None, 300)          90300       dropout_1[0][0]                  
__________________________________________________________________________________________________
dropout_2 (Dropout)             (None, 300)          0           dense_3[0][0]                    
__________________________________________________________________________________________________
concatenate_2 (Concatenate)     (None, 600)          0           dropout_1[0][0]                  
                                                                 dropout_2[0][0]                  
__________________________________________________________________________________________________
dense_4 (Dense)                 (None, 1024)         615424      concatenate_2[0][0]              
__________________________________________________________________________________________________
leaky_re_lu_1 (LeakyReLU)       (None, 1024)         0           dense_4[0][0]                    
__________________________________________________________________________________________________
dropout_3 (Dropout)             (None, 1024)         0           leaky_re_lu_1[0][0]              
__________________________________________________________________________________________________
dense_5 (Dense)                 (None, 2)            2050        dropout_3[0][0]                  
==================================================================================================
Total params: 1,790,274
Trainable params: 1,790,274
Non-trainable params: 0
__________________________________________________________________________________________________
Train on 963 samples, validate on 241 samples
Epoch 1/50

128/963 [==>...........................] - ETA: 21s - loss: 0.7067 - acc: 0.5156
…
